[Info] parameters: Namespace(batch_size=16, d_inner_hid=64, d_k=16, d_model=16, d_rnn=8, d_v=16, data='data/toy/3dim_2000seq_32ev/', device=device(type='cpu'), dropout=0.1, epoch=200, log='data/toy/3dim_2000seq_32ev/200_50_mask.txt', lr=0.001, lr_delay=0.01, n_head=1, n_layers=1, num_events=32, smooth=0.1)
[Info] Loading train data...
[Info] Loading dev data...
[Info] Loading test data...
Transformer(
  (masker): Masker(
    (fc1): Linear(in_features=64, out_features=256, bias=True)
    (fc2): Linear(in_features=256, out_features=9, bias=True)
  )
  (encoder): Encoder(
    (event_emb): Embedding(4, 16, padding_idx=0)
    (layer_stack): ModuleList(
      (0): EncoderLayer(
        (slf_attn): MultiHeadAttention(
          (w_qs): Linear(in_features=16, out_features=16, bias=False)
          (w_ks): Linear(in_features=16, out_features=16, bias=False)
          (w_vs): Linear(in_features=16, out_features=16, bias=False)
          (fc): Linear(in_features=16, out_features=16, bias=True)
          (attention): ScaledDotProductAttention(
            (dropout): Dropout(p=0.1, inplace=False)
          )
          (layer_norm): LayerNorm((16,), eps=1e-06, elementwise_affine=True)
          (dropout): Dropout(p=0.1, inplace=False)
        )
        (pos_ffn): PositionwiseFeedForward(
          (w_1): Linear(in_features=16, out_features=64, bias=True)
          (w_2): Linear(in_features=64, out_features=16, bias=True)
          (layer_norm): LayerNorm((16,), eps=1e-06, elementwise_affine=True)
          (dropout): Dropout(p=0.1, inplace=False)
        )
      )
    )
  )
  (linear): Linear(in_features=16, out_features=3, bias=True)
  (rnn): RNN_layers(
    (rnn): LSTM(16, 8, batch_first=True)
    (projection): Linear(in_features=8, out_features=16, bias=True)
  )
  (time_predictor): Predictor(
    (linear): Linear(in_features=16, out_features=1, bias=False)
  )
  (type_predictor): Predictor(
    (linear): Linear(in_features=16, out_features=3, bias=False)
  )
  (event_emb): Embedding(4, 16, padding_idx=0)
)
[Info] Number of parameters: 23415
[ Epoch 1 ]
  - (Training)   :   0%|          | 0/113 [00:00<?, ?it/s]  - (Training)   :   1%|          | 1/113 [00:03<06:22,  3.42s/it]                                                                    - (Training)    loglikelihood: -1.74429, accuracy:  0.65242, RMSE:  3.17401, elapse: 0.248 min
delta_matrix in Main train: 
 [[0. 0. 0.]
…
  | 63/113 [01:01<00:41,  1.21it/s]  - (Training)   :  58%|█████▊    | 66/113 [01:03<00:38,  1.22it/s]  - (Training)   :  61%|██████    | 69/113 [01:06<00:35,  1.24it/s][Info] parameters: Namespace(batch_size=16, d_inner_hid=64, d_k=16, d_model=16, d_rnn=8, d_v=16, data='data/toy/3dim_2000seq_32ev/', device=device(type='cpu'), dropout=0.1, epoch=100, log='data/toy/3dim_2000seq_32ev/100_25.txt', lr=0.001, lr_delay=0.001, n_head=1, n_layers=1, num_events=32, smooth=0.1)
[Info] Loading train data...
[Info] Loading dev data...
[Info] Loading test data...
Transformer(
  (masker): Masker(
    (fc1): Linear(in_features=32, out_features=256, bias=True)
    (fc2): Linear(in_features=256, out_features=9, bias=True)
  )
  (encoder): Encoder(
    (event_emb): Embedding(4, 16, padding_idx=0)
    (layer_stack): ModuleList(
      (0): EncoderLayer(
        (slf_attn): MultiHeadAttention(
          (w_qs): Linear(in_features=16, out_features=16, bias=False)
          (w_ks): Linear(in_features=16, out_features=16, bias=False)
          (w_vs): Linear(in_features=16, out_features=16, bias=False)
          (fc): Linear(in_features=16, out_features=16, bias=True)
          (attention): ScaledDotProductAttention(
            (dropout): Dropout(p=0.1, inplace=False)
          )
          (layer_norm): LayerNorm((16,), eps=1e-06, elementwise_affine=True)
          (dropout): Dropout(p=0.1, inplace=False)
        )
        (pos_ffn): PositionwiseFeedForward(
          (w_1): Linear(in_features=16, out_features=64, bias=True)
          (w_2): Linear(in_features=64, out_features=16, bias=True)
          (layer_norm): LayerNorm((16,), eps=1e-06, elementwise_affine=True)
          (dropout): Dropout(p=0.1, inplace=False)
        )
      )
    )
  )
  (linear): Linear(in_features=16, out_features=3, bias=True)
  (rnn): RNN_layers(
    (rnn): LSTM(16, 8, batch_first=True)
    (projection): Linear(in_features=8, out_features=16, bias=True)
  )
  (time_predictor): Predictor(
    (linear): Linear(in_features=16, out_features=1, bias=False)
  )
  (type_predictor): Predictor(
    (linear): Linear(in_features=16, out_features=3, bias=False)
  )
  (event_emb): Embedding(4, 16, padding_idx=0)
)
[Info] Number of parameters: 15223
[ Epoch 1 ]
  - (Training)   :   0%|          | 0/113 [00:00<?, ?it/s]  - (Training)   :   1%|          | 1/113 [00:03<06:41,  3.59s/it]                                                                    - (Training)    loglikelihood: -1.77913, accuracy:  0.62824, RMSE:  3.13491, elapse: 0.250 min, 
delta_matrix in Main train: 
 [[0. 0. 0.]
…
  - (Validation) :   0%|          | 0/7 [00:00<?, ?it/s]                                                          - (Testing)     loglikelihood: -1.67394, accuracy:  0.69032, RMSE:  3.00155, elapse: 0.198 min
  - [Info] Maximum ll: -1.67394, Maximum accuracy:  0.69032, Minimum RMSE:  3.00155
[ Epoch 4 ]
  - (Training)   :   0%|          | 0/113 [00:00<?, ?it/s][Info] parameters: Namespace(batch_size=16, d_inner_hid=64, d_k=16, d_model=16, d_rnn=8, d_v=16, data='data/toy/5dim_2000seq_32ev/', device=device(type='cpu'), dropout=0.1, epoch=100, log='data/toy/5dim_2000seq_32ev/100_25.txt', lr=0.001, lr_delay=0.01, n_head=1, n_layers=1, num_events=32, smooth=0.1)
[Info] Loading train data...
[Info] Loading dev data...
[Info] Loading test data...
Transformer(
  (masker): Masker(
    (fc1): Linear(in_features=32, out_features=256, bias=True)
    (fc2): Linear(in_features=256, out_features=25, bias=True)
  )
  (encoder): Encoder(
    (event_emb): Embedding(6, 16, padding_idx=0)
    (layer_stack): ModuleList(
      (0): EncoderLayer(
        (slf_attn): MultiHeadAttention(
          (w_qs): Linear(in_features=16, out_features=16, bias=False)
          (w_ks): Linear(in_features=16, out_features=16, bias=False)
          (w_vs): Linear(in_features=16, out_features=16, bias=False)
          (fc): Linear(in_features=16, out_features=16, bias=True)
          (attention): ScaledDotProductAttention(
            (dropout): Dropout(p=0.1, inplace=False)
          )
          (layer_norm): LayerNorm((16,), eps=1e-06, elementwise_affine=True)
          (dropout): Dropout(p=0.1, inplace=False)
        )
        (pos_ffn): PositionwiseFeedForward(
          (w_1): Linear(in_features=16, out_features=64, bias=True)
          (w_2): Linear(in_features=64, out_features=16, bias=True)
          (layer_norm): LayerNorm((16,), eps=1e-06, elementwise_affine=True)
          (dropout): Dropout(p=0.1, inplace=False)
        )
      )
    )
  )
  (linear): Linear(in_features=16, out_features=5, bias=True)
  (rnn): RNN_layers(
    (rnn): LSTM(16, 8, batch_first=True)
    (projection): Linear(in_features=8, out_features=16, bias=True)
  )
  (time_predictor): Predictor(
    (linear): Linear(in_features=16, out_features=1, bias=False)
  )
  (type_predictor): Predictor(
    (linear): Linear(in_features=16, out_features=5, bias=False)
  )
  (event_emb): Embedding(6, 16, padding_idx=0)
)
[Info] Number of parameters: 19481
[ Epoch 1 ]
  - (Training)   :   0%|          | 0/113 [00:00<?, ?it/s]  - (Training)   :   1%|          | 1/113 [00:03<07:13,  3.87s/it]  - (Training)   :  89%|████████▉ | 101/113 [00:05<00:00, 21.37it/s]  - (Training)   :   1%|          | 1/113 [00:04<08:15,  4.42s/it]                                                                      - (Training)    loglikelihood: -1.63980, accuracy:  0.66384, RMSE:  2.81645, elapse: 0.268 min, 
…
  - (Validation) :   0%|          | 0/7 [00:00<?, ?it/s]                                                          - (Testing)     loglikelihood: -1.25114, accuracy:  0.70387, RMSE:  2.92114, elapse: 0.197 min
  - [Info] Maximum ll: -1.25085, Maximum accuracy:  0.70710, Minimum RMSE:  2.92013
saving model
[Info] parameters: Namespace(batch_size=32, d_inner_hid=64, d_k=16, d_model=16, d_rnn=8, d_v=16, data='data/toy_one/3dim_20000seq_64ev/', device=device(type='cpu'), dropout=0.1, epoch=100, log='data/toy_one/3dim_20000seq_64ev/100_25_softplus_input3_hidden32.txt', lr=0.001, lr_delay=0.01, n_head=1, n_hidden=32, n_input=3, n_layers=1, num_events=64, smooth=0.1)
[Info] Loading train data...
[Info] Loading dev data...
[Info] Loading test data...
Transformer(
  (masker): Masker(
    (fc1): Linear(in_features=3, out_features=32, bias=True)
    (fc2): Linear(in_features=32, out_features=3, bias=True)
  )
  (encoder): Encoder(
    (event_emb): Embedding(4, 16, padding_idx=0)
    (layer_stack): ModuleList(
      (0): EncoderLayer(
        (slf_attn): MultiHeadAttention(
          (w_qs): Linear(in_features=16, out_features=16, bias=False)
          (w_ks): Linear(in_features=16, out_features=16, bias=False)
          (w_vs): Linear(in_features=16, out_features=16, bias=False)
          (fc): Linear(in_features=16, out_features=16, bias=True)
          (attention): ScaledDotProductAttention(
            (dropout): Dropout(p=0.1, inplace=False)
          )
          (layer_norm): LayerNorm((16,), eps=1e-06, elementwise_affine=True)
          (dropout): Dropout(p=0.1, inplace=False)
        )
        (pos_ffn): PositionwiseFeedForward(
          (w_1): Linear(in_features=16, out_features=64, bias=True)
          (w_2): Linear(in_features=64, out_features=16, bias=True)
          (layer_norm): LayerNorm((16,), eps=1e-06, elementwise_affine=True)
          (dropout): Dropout(p=0.1, inplace=False)
        )
      )
    )
  )
  (linear): Linear(in_features=16, out_features=3, bias=True)
  (rnn): RNN_layers(
    (rnn): LSTM(16, 8, batch_first=True)
    (projection): Linear(in_features=8, out_features=16, bias=True)
  )
  (time_predictor): Predictor(
    (linear): Linear(in_features=16, out_features=1, bias=False)
  )
  (type_predictor): Predictor(
    (linear): Linear(in_features=16, out_features=3, bias=False)
  )
  (event_emb): Embedding(4, 16, padding_idx=0)
)
[Info] Number of parameters: 4689
[ Epoch 1 ]
  - (Training)   :   0%|          | 0/500 [00:00<?, ?it/s]  - (Training)   :   0%|          | 1/500 [00:04<40:50,  4.91s/it]  - (Training)   :  10%|▉         | 48/500 [00:06<00:51,  8.73it/s]  - (Training)   :  17%|█▋        | 86/500 [00:08<00:34, 12.17it/s]  - (Training)   :  24%|██▍       | 121/500 [00:10<00:27, 13.89it/s
…
train delay:  1709.145219278383
train other:  744.0673672697287
  - (Validation) :   0%|          | 0/63 [00:00<?, ?it/s][Info] parameters: Namespace(batch_size=32, d_inner_hid=64, d_k=16, d_model=16, d_rnn=8, d_v=16, data='data/toy_one/3dim_20000seq_64ev/', device=device(type='cpu'), dropout=0.1, epoch=100, log='data/toy_one/3dim_20000seq_64ev/100_25_softplus_input32_hidden64.txt', lr=0.001, lr_delay=0.01, n_head=1, n_hidden=64, n_input=32, n_layers=1, num_events=64, smooth=0.1)
[Info] Loading train data...
[Info] Loading dev data...
[Info] Loading test data...
Transformer(
  (masker): Masker(
    (fc1): Linear(in_features=32, out_features=64, bias=True)
    (fc2): Linear(in_features=64, out_features=3, bias=True)
  )
  (encoder): Encoder(
    (event_emb): Embedding(4, 16, padding_idx=0)
    (layer_stack): ModuleList(
      (0): EncoderLayer(
        (slf_attn): MultiHeadAttention(
          (w_qs): Linear(in_features=16, out_features=16, bias=False)
          (w_ks): Linear(in_features=16, out_features=16, bias=False)
          (w_vs): Linear(in_features=16, out_features=16, bias=False)
          (fc): Linear(in_features=16, out_features=16, bias=True)
          (attention): ScaledDotProductAttention(
            (dropout): Dropout(p=0.1, inplace=False)
          )
          (layer_norm): LayerNorm((16,), eps=1e-06, elementwise_affine=True)
          (dropout): Dropout(p=0.1, inplace=False)
        )
        (pos_ffn): PositionwiseFeedForward(
          (w_1): Linear(in_features=16, out_features=64, bias=True)
          (w_2): Linear(in_features=64, out_features=16, bias=True)
          (layer_norm): LayerNorm((16,), eps=1e-06, elementwise_affine=True)
          (dropout): Dropout(p=0.1, inplace=False)
        )
      )
    )
  )
  (linear): Linear(in_features=16, out_features=3, bias=True)
  (rnn): RNN_layers(
    (rnn): LSTM(16, 8, batch_first=True)
    (projection): Linear(in_features=8, out_features=16, bias=True)
  )
  (time_predictor): Predictor(
    (linear): Linear(in_features=16, out_features=1, bias=False)
  )
  (type_predictor): Predictor(
    (linear): Linear(in_features=16, out_features=3, bias=False)
  )
  (event_emb): Embedding(4, 16, padding_idx=0)
)
[Info] Number of parameters: 6769
[ Epoch 1 ]
  - (Training)   :   0%|          | 0/500 [00:00<?, ?it/s]                                                          Traceback (most recent call last):
  File "Main.py", line 448, in <module>
    main()
  File "Main.py", line 441, in main
    train(model, trainloader, testloader, optimizer, optimizer2, scheduler, scheduler2, pred_loss_func, opt,
…
  File "/Users/conniemessi/opt/anaconda3/envs/RL/lib/python3.8/multiprocessing/util.py", line 452, in spawnv_passfds
    return _posixsubprocess.fork_exec(
BlockingIOError: [Errno 35] Resource temporarily unavailable
[Info] parameters: Namespace(batch_size=32, d_inner_hid=64, d_k=16, d_model=16, d_rnn=8, d_v=16, data='data/toy_one/3dim_20000seq_64ev/', device=device(type='cpu'), dropout=0.1, epoch=100, log='data/toy_one/3dim_20000seq_64ev/2000_100_25_softplus_input16_hidden32.txt', lr=0.001, lr_delay=0.01, n_head=1, n_hidden=32, n_input=16, n_layers=1, num_events=64, smooth=0.1)
[Info] Loading train data...
[Info] Loading dev data...
[Info] Loading test data...
Transformer(
  (masker): Masker(
    (fc1): Linear(in_features=16, out_features=32, bias=True)
    (fc2): Linear(in_features=32, out_features=3, bias=True)
  )
  (encoder): Encoder(
    (event_emb): Embedding(4, 16, padding_idx=0)
    (layer_stack): ModuleList(
      (0): EncoderLayer(
        (slf_attn): MultiHeadAttention(
          (w_qs): Linear(in_features=16, out_features=16, bias=False)
          (w_ks): Linear(in_features=16, out_features=16, bias=False)
          (w_vs): Linear(in_features=16, out_features=16, bias=False)
          (fc): Linear(in_features=16, out_features=16, bias=True)
          (attention): ScaledDotProductAttention(
            (dropout): Dropout(p=0.1, inplace=False)
          )
          (layer_norm): LayerNorm((16,), eps=1e-06, elementwise_affine=True)
          (dropout): Dropout(p=0.1, inplace=False)
        )
        (pos_ffn): PositionwiseFeedForward(
          (w_1): Linear(in_features=16, out_features=64, bias=True)
          (w_2): Linear(in_features=64, out_features=16, bias=True)
          (layer_norm): LayerNorm((16,), eps=1e-06, elementwise_affine=True)
          (dropout): Dropout(p=0.1, inplace=False)
        )
      )
    )
  )
  (linear): Linear(in_features=16, out_features=3, bias=True)
  (rnn): RNN_layers(
    (rnn): LSTM(16, 8, batch_first=True)
    (projection): Linear(in_features=8, out_features=16, bias=True)
  )
  (time_predictor): Predictor(
    (linear): Linear(in_features=16, out_features=1, bias=False)
  )
  (type_predictor): Predictor(
    (linear): Linear(in_features=16, out_features=3, bias=False)
  )
  (event_emb): Embedding(4, 16, padding_idx=0)
)
[Info] Number of parameters: 5105
[ Epoch 1 ]
  - (Training)   :   0%|          | 0/63 [00:00<?, ?it/s]  - (Training)   :   2%|▏         | 1/63 [00:03<03:38,  3.52s/it]                                                                 63
  - (Training)    loglikelihood: -0.35022, accuracy:  0.50079, RMSE:  0.37820, elapse: 0.252 min, 
delta_matrix in Main train: 
 [0. 0. 0.]
…
  - (Training)   :   0%|          | 0/63 [00:00<?, ?it/s]  - (Training)   :   2%|▏         | 1/63 [00:05<05:25,  5.25s/it]  - (Training)   :  67%|██████▋   | 42/63 [00:07<00:02,  7.35it/s][Info] parameters: Namespace(batch_size=32, d_inner_hid=64, d_k=16, d_model=16, d_rnn=8, d_v=16, data='data/toy_one/3dim_20000seq_64ev/', device=device(type='cpu'), dropout=0.1, epoch=100, log='data/toy_one/3dim_20000seq_64ev/2000_100_25_softplus_input16_hidden64.txt', lr=0.001, lr_delay=0.01, n_head=1, n_hidden=64, n_input=16, n_layers=1, num_events=64, smooth=0.1)
[Info] Loading train data...
[Info] Loading dev data...
[Info] Loading test data...
Transformer(
  (masker): Masker(
    (fc1): Linear(in_features=16, out_features=64, bias=True)
    (fc2): Linear(in_features=64, out_features=3, bias=True)
  )
  (encoder): Encoder(
    (event_emb): Embedding(4, 16, padding_idx=0)
    (layer_stack): ModuleList(
      (0): EncoderLayer(
        (slf_attn): MultiHeadAttention(
          (w_qs): Linear(in_features=16, out_features=16, bias=False)
          (w_ks): Linear(in_features=16, out_features=16, bias=False)
          (w_vs): Linear(in_features=16, out_features=16, bias=False)
          (fc): Linear(in_features=16, out_features=16, bias=True)
          (attention): ScaledDotProductAttention(
            (dropout): Dropout(p=0.1, inplace=False)
          )
          (layer_norm): LayerNorm((16,), eps=1e-06, elementwise_affine=True)
          (dropout): Dropout(p=0.1, inplace=False)
        )
        (pos_ffn): PositionwiseFeedForward(
          (w_1): Linear(in_features=16, out_features=64, bias=True)
          (w_2): Linear(in_features=64, out_features=16, bias=True)
          (layer_norm): LayerNorm((16,), eps=1e-06, elementwise_affine=True)
          (dropout): Dropout(p=0.1, inplace=False)
        )
      )
    )
  )
  (linear): Linear(in_features=16, out_features=3, bias=True)
  (rnn): RNN_layers(
    (rnn): LSTM(16, 8, batch_first=True)
    (projection): Linear(in_features=8, out_features=16, bias=True)
  )
  (time_predictor): Predictor(
    (linear): Linear(in_features=16, out_features=1, bias=False)
  )
  (type_predictor): Predictor(
    (linear): Linear(in_features=16, out_features=3, bias=False)
  )
  (event_emb): Embedding(4, 16, padding_idx=0)
)
[Info] Number of parameters: 5745
[ Epoch 1 ]
  - (Training)   :   0%|          | 0/63 [00:00<?, ?it/s]  - (Training)   :   2%|▏         | 1/63 [00:04<04:30,  4.37s/it]  - (Training)   :  68%|██████▊   | 43/63 [00:06<00:02,  8.36it/s]                                                                  63
  - (Training)    loglikelihood:  0.70447, accuracy:  0.62206, RMSE:  0.24772, elapse: 0.308 min, 
…
  - (Training)   :   0%|          | 0/63 [00:00<?, ?it/s]  - (Training)   :   2%|▏         | 1/63 [00:07<07:22,  7.13s/it]  - (Training)   :  27%|██▋       | 17/63 [00:09<00:19,  2.38it/s]  - (Training)   :  68%|██████▊   | 43/63 [00:11<00:03,  5.46it/s][Info] parameters: Namespace(batch_size=32, d_inner_hid=64, d_k=16, d_model=16, d_rnn=8, d_v=16, data='data/toy_one/3dim_20000seq_64ev/', device=device(type='cpu'), dropout=0.1, epoch=100, log='data/toy_one/3dim_20000seq_64ev/2000_100_25_input3_hidden16.txt', lr=0.001, lr_delay=0.01, n_head=1, n_hidden=16, n_input=3, n_layers=1, num_events=64, smooth=0.1)
[Info] Loading train data...
[Info] Loading dev data...
[Info] Loading test data...
Transformer(
  (masker): Masker(
    (fc1): Linear(in_features=3, out_features=16, bias=True)
    (fc2): Linear(in_features=16, out_features=3, bias=True)
  )
  (encoder): Encoder(
    (event_emb): Embedding(4, 16, padding_idx=0)
    (layer_stack): ModuleList(
      (0): EncoderLayer(
        (slf_attn): MultiHeadAttention(
          (w_qs): Linear(in_features=16, out_features=16, bias=False)
          (w_ks): Linear(in_features=16, out_features=16, bias=False)
          (w_vs): Linear(in_features=16, out_features=16, bias=False)
          (fc): Linear(in_features=16, out_features=16, bias=True)
          (attention): ScaledDotProductAttention(
            (dropout): Dropout(p=0.1, inplace=False)
          )
          (layer_norm): LayerNorm((16,), eps=1e-06, elementwise_affine=True)
          (dropout): Dropout(p=0.1, inplace=False)
        )
        (pos_ffn): PositionwiseFeedForward(
          (w_1): Linear(in_features=16, out_features=64, bias=True)
          (w_2): Linear(in_features=64, out_features=16, bias=True)
          (layer_norm): LayerNorm((16,), eps=1e-06, elementwise_affine=True)
          (dropout): Dropout(p=0.1, inplace=False)
        )
      )
    )
  )
  (linear): Linear(in_features=16, out_features=3, bias=True)
  (rnn): RNN_layers(
    (rnn): LSTM(16, 8, batch_first=True)
    (projection): Linear(in_features=8, out_features=16, bias=True)
  )
  (time_predictor): Predictor(
    (linear): Linear(in_features=16, out_features=1, bias=False)
  )
  (type_predictor): Predictor(
    (linear): Linear(in_features=16, out_features=3, bias=False)
  )
  (event_emb): Embedding(4, 16, padding_idx=0)
)
[Info] Number of parameters: 4577
[ Epoch 1 ]
  - (Training)   :   0%|          | 0/63 [00:00<?, ?it/s]  - (Training)   :   2%|▏         | 1/63 [00:07<07:15,  7.02s/it]  - (Training)   :  56%|█████▌    | 35/63 [00:09<00:05,  4.99it/s]  - (Training)   :   2%|▏         | 1/63 [00:06<07:07,  6.90s/it]  - (Training)   :  40%|███▉      | 25/63 [00:08<00:10,  3.61it/s]  - (Training)   :  86%|████████▌ | 54/63 [00:10<00:01,  6.73it/s]                                                                  63
…
  - (Validation) :   0%|          | 0/7 [00:00<?, ?it/s]  - (Validation) :  14%|█▍        | 1/7 [00:02<00:17,  2.99s/it][Info] parameters: Namespace(batch_size=16, d_inner_hid=32, d_k=16, d_model=16, d_rnn=8, d_v=16, data='data/toy_one/5dim_2000seq_128ev/', device=device(type='cpu'), dropout=0.1, epoch=100, log='data/toy_one/5dim_2000seq_128ev/100_15_input5_hidden32_abs.txt', lr=0.001, lr_delay=0.01, n_head=1, n_hidden=32, n_input=5, n_layers=1, num_events=128, smooth=0.1)
[Info] Loading train data...
[Info] Loading dev data...
[Info] Loading test data...
Transformer(
  (masker): Masker(
    (fc1): Linear(in_features=5, out_features=32, bias=True)
    (fc2): Linear(in_features=32, out_features=5, bias=True)
  )
  (encoder): Encoder(
    (event_emb): Embedding(6, 16, padding_idx=0)
    (layer_stack): ModuleList(
      (0): EncoderLayer(
        (slf_attn): MultiHeadAttention(
          (w_qs): Linear(in_features=16, out_features=16, bias=False)
          (w_ks): Linear(in_features=16, out_features=16, bias=False)
          (w_vs): Linear(in_features=16, out_features=16, bias=False)
          (fc): Linear(in_features=16, out_features=16, bias=True)
          (attention): ScaledDotProductAttention(
            (dropout): Dropout(p=0.1, inplace=False)
          )
          (layer_norm): LayerNorm((16,), eps=1e-06, elementwise_affine=True)
          (dropout): Dropout(p=0.1, inplace=False)
        )
        (pos_ffn): PositionwiseFeedForward(
          (w_1): Linear(in_features=16, out_features=32, bias=True)
          (w_2): Linear(in_features=32, out_features=16, bias=True)
          (layer_norm): LayerNorm((16,), eps=1e-06, elementwise_affine=True)
          (dropout): Dropout(p=0.1, inplace=False)
        )
      )
    )
  )
  (linear): Linear(in_features=16, out_features=5, bias=True)
  (rnn): RNN_layers(
    (rnn): LSTM(16, 8, batch_first=True)
    (projection): Linear(in_features=8, out_features=16, bias=True)
  )
  (time_predictor): Predictor(
    (linear): Linear(in_features=16, out_features=1, bias=False)
  )
  (type_predictor): Predictor(
    (linear): Linear(in_features=16, out_features=5, bias=False)
  )
  (event_emb): Embedding(6, 16, padding_idx=0)
)
[Info] Number of parameters: 3909
[ Epoch 1 ]
  - (Training)   :   0%|          | 0/100 [00:00<?, ?it/s]  - (Training)   :   1%|          | 1/100 [00:03<06:17,  3.82s/it]  - (Training)   :  46%|████▌     | 46/100 [00:05<00:05,  9.75it/s]  - (Training)   :  90%|█████████ | 90/100 [00:07<00:00, 14.30it/s]                                                                   100
…
  File "/Users/conniemessi/opt/anaconda3/envs/RL/lib/python3.8/multiprocessing/util.py", line 450, in spawnv_passfds
    errpipe_read, errpipe_write = os.pipe()
OSError: [Errno 24] Too many open files
[Info] parameters: Namespace(batch_size=16, d_inner_hid=32, d_k=16, d_model=16, d_rnn=8, d_v=16, data='data/toy_one/3dim_20000seq_64ev/', device=device(type='cpu'), dropout=0.1, epoch=100, log='data/toy_one/3dim_20000seq_64ev/2000_100_20_input3_hidden32_abs.txt', lr=0.001, lr_delay=0.01, n_head=1, n_hidden=32, n_input=3, n_layers=1, num_events=64, smooth=0.1)
[Info] Loading train data...
[Info] Loading dev data...
[Info] Loading test data...
Transformer(
  (masker): Masker(
    (fc1): Linear(in_features=3, out_features=32, bias=True)
    (fc2): Linear(in_features=32, out_features=3, bias=True)
  )
  (encoder): Encoder(
    (event_emb): Embedding(4, 16, padding_idx=0)
    (layer_stack): ModuleList(
      (0): EncoderLayer(
        (slf_attn): MultiHeadAttention(
          (w_qs): Linear(in_features=16, out_features=16, bias=False)
          (w_ks): Linear(in_features=16, out_features=16, bias=False)
          (w_vs): Linear(in_features=16, out_features=16, bias=False)
          (fc): Linear(in_features=16, out_features=16, bias=True)
          (attention): ScaledDotProductAttention(
            (dropout): Dropout(p=0.1, inplace=False)
          )
          (layer_norm): LayerNorm((16,), eps=1e-06, elementwise_affine=True)
          (dropout): Dropout(p=0.1, inplace=False)
        )
        (pos_ffn): PositionwiseFeedForward(
          (w_1): Linear(in_features=16, out_features=32, bias=True)
          (w_2): Linear(in_features=32, out_features=16, bias=True)
          (layer_norm): LayerNorm((16,), eps=1e-06, elementwise_affine=True)
          (dropout): Dropout(p=0.1, inplace=False)
        )
      )
    )
  )
  (linear): Linear(in_features=16, out_features=3, bias=True)
  (rnn): RNN_layers(
    (rnn): LSTM(16, 8, batch_first=True)
    (projection): Linear(in_features=8, out_features=16, bias=True)
  )
  (time_predictor): Predictor(
    (linear): Linear(in_features=16, out_features=1, bias=False)
  )
  (type_predictor): Predictor(
    (linear): Linear(in_features=16, out_features=3, bias=False)
  )
  (event_emb): Embedding(4, 16, padding_idx=0)
)
[Info] Number of parameters: 3633
[ Epoch 1 ]
  - (Training)   :   0%|          | 0/1000 [00:00<?, ?it/s]  - (Training)   :   0%|          | 1/1000 [00:04<1:06:42,  4.01s/it]  - (Training)   :  10%|▉         | 96/1000 [00:06<00:45, 19.90it/s]   - (Training)   :  19%|█▉        | 192/1000 [00:08<00:26, 30.37it/s]  - (Training)   :  29%|██▉       | 288/1000 [00:10<00:19, 
…
