[Info] parameters: Namespace(batch_size=16, d_inner_hid=64, d_k=16, d_model=16, d_rnn=8, d_v=16, data='data/toy/3dim_2000seq_32ev/', device=device(type='cpu'), dropout=0.1, epoch=200, log='data/toy/3dim_2000seq_32ev/200_50_mask.txt', lr=0.001, lr_delay=0.01, n_head=1, n_layers=1, num_events=32, smooth=0.1)
[Info] Loading train data...
[Info] Loading dev data...
[Info] Loading test data...
Transformer(
  (masker): Masker(
    (fc1): Linear(in_features=64, out_features=256, bias=True)
    (fc2): Linear(in_features=256, out_features=9, bias=True)
  )
  (encoder): Encoder(
    (event_emb): Embedding(4, 16, padding_idx=0)
    (layer_stack): ModuleList(
      (0): EncoderLayer(
        (slf_attn): MultiHeadAttention(
          (w_qs): Linear(in_features=16, out_features=16, bias=False)
          (w_ks): Linear(in_features=16, out_features=16, bias=False)
          (w_vs): Linear(in_features=16, out_features=16, bias=False)
          (fc): Linear(in_features=16, out_features=16, bias=True)
          (attention): ScaledDotProductAttention(
            (dropout): Dropout(p=0.1, inplace=False)
          )
          (layer_norm): LayerNorm((16,), eps=1e-06, elementwise_affine=True)
          (dropout): Dropout(p=0.1, inplace=False)
        )
        (pos_ffn): PositionwiseFeedForward(
          (w_1): Linear(in_features=16, out_features=64, bias=True)
          (w_2): Linear(in_features=64, out_features=16, bias=True)
          (layer_norm): LayerNorm((16,), eps=1e-06, elementwise_affine=True)
          (dropout): Dropout(p=0.1, inplace=False)
        )
      )
    )
  )
  (linear): Linear(in_features=16, out_features=3, bias=True)
  (rnn): RNN_layers(
    (rnn): LSTM(16, 8, batch_first=True)
    (projection): Linear(in_features=8, out_features=16, bias=True)
  )
  (time_predictor): Predictor(
    (linear): Linear(in_features=16, out_features=1, bias=False)
  )
  (type_predictor): Predictor(
    (linear): Linear(in_features=16, out_features=3, bias=False)
  )
  (event_emb): Embedding(4, 16, padding_idx=0)
)
[Info] Number of parameters: 23415
[ Epoch 1 ]
  - (Training)   :   0%|          | 0/113 [00:00<?, ?it/s]  - (Training)   :   1%|          | 1/113 [00:03<06:22,  3.42s/it]                                                                    - (Training)    loglikelihood: -1.74429, accuracy:  0.65242, RMSE:  3.17401, elapse: 0.248 min
delta_matrix in Main train: 
 [[0. 0. 0.]
…
  | 63/113 [01:01<00:41,  1.21it/s]  - (Training)   :  58%|█████▊    | 66/113 [01:03<00:38,  1.22it/s]  - (Training)   :  61%|██████    | 69/113 [01:06<00:35,  1.24it/s][Info] parameters: Namespace(batch_size=16, d_inner_hid=64, d_k=16, d_model=16, d_rnn=8, d_v=16, data='data/toy/3dim_2000seq_32ev/', device=device(type='cpu'), dropout=0.1, epoch=100, log='data/toy/3dim_2000seq_32ev/100_25.txt', lr=0.001, lr_delay=0.001, n_head=1, n_layers=1, num_events=32, smooth=0.1)
[Info] Loading train data...
[Info] Loading dev data...
[Info] Loading test data...
Transformer(
  (masker): Masker(
    (fc1): Linear(in_features=32, out_features=256, bias=True)
    (fc2): Linear(in_features=256, out_features=9, bias=True)
  )
  (encoder): Encoder(
    (event_emb): Embedding(4, 16, padding_idx=0)
    (layer_stack): ModuleList(
      (0): EncoderLayer(
        (slf_attn): MultiHeadAttention(
          (w_qs): Linear(in_features=16, out_features=16, bias=False)
          (w_ks): Linear(in_features=16, out_features=16, bias=False)
          (w_vs): Linear(in_features=16, out_features=16, bias=False)
          (fc): Linear(in_features=16, out_features=16, bias=True)
          (attention): ScaledDotProductAttention(
            (dropout): Dropout(p=0.1, inplace=False)
          )
          (layer_norm): LayerNorm((16,), eps=1e-06, elementwise_affine=True)
          (dropout): Dropout(p=0.1, inplace=False)
        )
        (pos_ffn): PositionwiseFeedForward(
          (w_1): Linear(in_features=16, out_features=64, bias=True)
          (w_2): Linear(in_features=64, out_features=16, bias=True)
          (layer_norm): LayerNorm((16,), eps=1e-06, elementwise_affine=True)
          (dropout): Dropout(p=0.1, inplace=False)
        )
      )
    )
  )
  (linear): Linear(in_features=16, out_features=3, bias=True)
  (rnn): RNN_layers(
    (rnn): LSTM(16, 8, batch_first=True)
    (projection): Linear(in_features=8, out_features=16, bias=True)
  )
  (time_predictor): Predictor(
    (linear): Linear(in_features=16, out_features=1, bias=False)
  )
  (type_predictor): Predictor(
    (linear): Linear(in_features=16, out_features=3, bias=False)
  )
  (event_emb): Embedding(4, 16, padding_idx=0)
)
[Info] Number of parameters: 15223
[ Epoch 1 ]
  - (Training)   :   0%|          | 0/113 [00:00<?, ?it/s]  - (Training)   :   1%|          | 1/113 [00:03<06:41,  3.59s/it]                                                                    - (Training)    loglikelihood: -1.77913, accuracy:  0.62824, RMSE:  3.13491, elapse: 0.250 min, 
delta_matrix in Main train: 
 [[0. 0. 0.]
…
  - (Validation) :   0%|          | 0/7 [00:00<?, ?it/s]                                                          - (Testing)     loglikelihood: -1.67394, accuracy:  0.69032, RMSE:  3.00155, elapse: 0.198 min
  - [Info] Maximum ll: -1.67394, Maximum accuracy:  0.69032, Minimum RMSE:  3.00155
[ Epoch 4 ]
  - (Training)   :   0%|          | 0/113 [00:00<?, ?it/s][Info] parameters: Namespace(batch_size=16, d_inner_hid=64, d_k=16, d_model=16, d_rnn=8, d_v=16, data='data/toy/5dim_2000seq_32ev/', device=device(type='cpu'), dropout=0.1, epoch=100, log='data/toy/5dim_2000seq_32ev/100_25.txt', lr=0.001, lr_delay=0.01, n_head=1, n_layers=1, num_events=32, smooth=0.1)
[Info] Loading train data...
[Info] Loading dev data...
[Info] Loading test data...
Transformer(
  (masker): Masker(
    (fc1): Linear(in_features=32, out_features=256, bias=True)
    (fc2): Linear(in_features=256, out_features=25, bias=True)
  )
  (encoder): Encoder(
    (event_emb): Embedding(6, 16, padding_idx=0)
    (layer_stack): ModuleList(
      (0): EncoderLayer(
        (slf_attn): MultiHeadAttention(
          (w_qs): Linear(in_features=16, out_features=16, bias=False)
          (w_ks): Linear(in_features=16, out_features=16, bias=False)
          (w_vs): Linear(in_features=16, out_features=16, bias=False)
          (fc): Linear(in_features=16, out_features=16, bias=True)
          (attention): ScaledDotProductAttention(
            (dropout): Dropout(p=0.1, inplace=False)
          )
          (layer_norm): LayerNorm((16,), eps=1e-06, elementwise_affine=True)
          (dropout): Dropout(p=0.1, inplace=False)
        )
        (pos_ffn): PositionwiseFeedForward(
          (w_1): Linear(in_features=16, out_features=64, bias=True)
          (w_2): Linear(in_features=64, out_features=16, bias=True)
          (layer_norm): LayerNorm((16,), eps=1e-06, elementwise_affine=True)
          (dropout): Dropout(p=0.1, inplace=False)
        )
      )
    )
  )
  (linear): Linear(in_features=16, out_features=5, bias=True)
  (rnn): RNN_layers(
    (rnn): LSTM(16, 8, batch_first=True)
    (projection): Linear(in_features=8, out_features=16, bias=True)
  )
  (time_predictor): Predictor(
    (linear): Linear(in_features=16, out_features=1, bias=False)
  )
  (type_predictor): Predictor(
    (linear): Linear(in_features=16, out_features=5, bias=False)
  )
  (event_emb): Embedding(6, 16, padding_idx=0)
)
[Info] Number of parameters: 19481
[ Epoch 1 ]
  - (Training)   :   0%|          | 0/113 [00:00<?, ?it/s]  - (Training)   :   1%|          | 1/113 [00:03<07:13,  3.87s/it]  - (Training)   :  89%|████████▉ | 101/113 [00:05<00:00, 21.37it/s]  - (Training)   :   1%|          | 1/113 [00:04<08:15,  4.42s/it]                                                                      - (Training)    loglikelihood: -1.63980, accuracy:  0.66384, RMSE:  2.81645, elapse: 0.268 min, 
…
